…
MA V1 model
#+author: Chunwei Yan
#+date: 2024-03-21
#+hugo_tags: "LLM" "tech"
#+hugo_draft: false
#+toc: nil

Let's load the model

#+BEGIN_SRC python
from transformers import LlamaModel, LlamaConfig
model = LlamaModel.from_pretrained("llama-7b-hf-path")

def count_params(model, is_human: bool = False):
    params: int = sum(p.numel() for p in model.parameters() if p.requires_grad)
    return f"{params / 1e6:.2f}M" if is_human else params

print(model)
print("Total # of params:", count_params(model, is_human=True))
#+END_SRC

Print out the layers:

#+BEGIN_SRC text
LlamaModel(
  (embed_tokens): Embedding(32000, 4096, padding_idx=0)
  (layers): ModuleList(
    (0-31): 32 x LlamaDecoderLayer(
      (self_attn): LlamaSdpaAttention(
        (q_proj): Linear(in_features=4096, out_features=4096, bias=False)
        (k_proj): Linear(in_features=4096, out_features=4096, bias=False)
        (v_proj): Linear(in_features=4096, out_features=4096, bias=False)
        (o_proj): Linear(in_features=4096, out_features=4096, bias=False)
        (rotary_emb): LlamaRotaryEmbedding()
      )
      (mlp): LlamaMLP(
        (gate_proj): Linear(in_features=4096, out_features=11008, bias=False)
        (up_proj): Linear(in_features=4096, out_features=11008, bias=False)
        (down_proj): Linear(in_features=11008, out_features=4096, bias=False)
        (act_fn): SiLU()
      )
      (input_layernorm): LlamaRMSNorm()
      (post_attention_layernorm): LlamaRMSNorm()
    )
  )
  (norm): LlamaRMSNorm()
)
Total # of params: 6607.34M
#+END_SRC

The Transformers shows that there are 6607.34M float16 parameters, roughly 13GB, that is aligned to the actual weight size.

* The basic setting of the 7B model
…
The overall parameters are composed of two major parts, the vocabulary embedding, and the transformer layers, that is ~embed + 32 * (mha + mlp + norm)~:
- $embed=n_{token}\times d_{model}=131.07M$
- $mha=4* d_{model}^2=67.1M$
- $mlp=3* d_{model}\times d_{ff}=135.27M$
- $norm=2*d_{model}=8.19M$

And the count of the parameters is 6607.3M, which is aligned to the number from Transformers.

#+BEGIN_SRC python
def count_llama_params(d_model, d_ff, n_tokens, n_layers):
    embed = n_tokens * d_model
    mha = 4 * d_model**2
    mlp = 3 * d_moel * d_ff
    norm = 2 * d_model
    return embed + n_layers * (mha + mlp + norm)
#+END_SRC

For example, the Llama 65B model


#+BEGIN_SRC text
LlamaModel(
  (embed_tokens): Embedding(32000, 8192, padding_idx=0)
  (layers): ModuleList(
    (0-79): 80 x LlamaDecoderLayer(
      (self_attn): LlamaSdpaAttention(
        (q_proj): Linear(in_features=8192, out_features=8192, bias=False)
        (k_proj): Linear(in_features=8192, out_features=8192, bias=False)
        (v_proj): Linear(in_features=8192, out_features=8192, bias=False)
        (o_proj): Linear(in_features=8192, out_features=8192, bias=False)
        (rotary_emb): LlamaRotaryEmbedding()
      )
      (mlp): LlamaMLP(
        (gate_proj): Linear(in_features=8192, out_features=22016, bias=False)
        (up_proj): Linear(in_features=8192, out_features=22016, bias=False)
        (down_proj): Linear(in_features=22016, out_features=8192, bias=False)
        (act_fn): SiLU()
      )
      (input_layernorm): LlamaRMSNorm()
      (post_attention_layernorm): LlamaRMSNorm()
    )
  )
  (norm): LlamaRMSNorm()
)
Total # of params: 65023.52M
#+END_SRC

And let's use the function

#+BEGIN_SRC python
count_llama_params(d_model=8192,
    d_ff=22016,
    n_tokens=32000,
    n_layers=80)
#+END_SRC

It gives 65023.5M, is is roughly aligned.
…
